Chapter7/model/birds_vs_airplanes.pt (torch, 75247 bytes, 8 tensors)

conv1.weight f4 [16, 3, 3, 3]
-0.08848955 0.26968196 -0.21762764 0.2645742 -0.0020299803 -0.14291228 0.1802912 -0.077201374
0.14642142 0.15984203 0.119358964 -0.17103906 0.08059936 -0.061118115 -0.15977694 -0.069247745
-0.06246585 0.10185804 0.17371552 0.0962245 -0.3716934 -0.063802905 -0.13934447 -0.20087296
-0.32076383 -0.17416066 -0.100732826 -0.12793092 -0.3190149 0.12204745 0.12773326 0.03876278
-0.17042802 -0.09267177 -0.14097275 0.00692869 -0.18409133 -0.020067617 -0.054028194 -0.057448655
-0.075177476 0.21470152 0.027973436 -0.23808563 -0.15859498 0.15768957 0.16936238 -0.09744533
0.27069613 0.07571658 0.2817187 0.22434883 0.09370819 0.26610267 0.05382777 -0.060798418
0.021045577 0.35106874 0.029922405 -0.10469807 0.012598855 -0.104931064 0.2488877 0.024474785
-0.08576141 0.0384914 0.26735598 -0.15201706 -0.24525927 -0.10708732 -0.09874912 0.30608425
-0.023084097 0.03147683 0.0052021625 -0.27278185 -0.29338622 -0.19784263 -0.35590455 -0.20983313
0.28347504 0.30718 0.25432348 0.19569191 0.022308435 0.17828912 0.25786847 0.3203263
-0.033580847 -0.14163499 -0.16185819 -0.12790279 0.087498285 -0.24570526 -0.20252185 -0.16000514
0.036549617 -0.052466 -0.16587621 0.08504192 -0.13971505 -0.18352169 -0.28624532 -0.14025345
-0.24554199 0.07075344 0.12195853 -0.15333393 0.32025358 0.030512147 -0.06862079 0.04165148
0.24134229 -0.020463828 0.22911638 0.07546241 0.14027755 -0.06254873 0.16244687 -0.082282245
-0.05394641 0.07168371 0.12543915 0.06506839 0.05671278 0.002169926 -0.28894675 -0.17281006
0.05169997 -0.30390525 -0.04595296 -0.28249013 -0.28495976 -0.11140393 -0.13223478 0.00010577237
-0.27137697 -0.16457263 0.09738965 0.0032531228 0.09131206 -0.15031983 -0.35252553 -0.29128158
-0.12095124 0.05381494 0.036018517 0.11874283 0.03098302 -0.04910144 -0.2265353 -0.037684206
0.10007449 -0.033496827 -0.014293679 0.2799109 0.25851282 -0.016014937 0.36863503 0.3099264
0.2587018 0.34176207 -0.041807245 -0.21230462 0.080194354 -0.06793599 -0.15265155 -0.09626382
0.20268366 0.1328062 0.14791961 0.030945744 -0.09692026 -0.0928735 0.16029562 -0.21470751
0.17716636 0.28795543 0.15358597 0.09284878 -0.10495746 -0.13379964 -0.10820579 -0.19979265
-0.017554302 -0.17323995 0.17740205 0.22580896 0.09257441 0.013772426 -0.23027417 -0.0780438
0.17003335 -0.14213596 0.009078173 -0.17263694 -0.08239641 0.17355074 -0.15900911 0.082081206
0.12588824 -0.11946875 0.055430625 0.1533232 -0.022577351 0.018130299 0.19506791 -0.19847941
-0.26391482 -0.13521004 -0.033473603 -0.033791807 0.15690957 -0.14431223 -0.14561266 0.1675929
0.14520992 0.24221829 0.0591346 -0.0109432805 -0.18381579 0.04558263 -0.34277827 0.045947004
-0.19428799 0.26071402 -0.0937768 0.21466883 -0.26618305 -0.33770803 0.027525065 -0.32968742
-0.43399832 -0.5293381 0.4083011 0.36225998 0.29714763 0.1805407 -0.103503644 0.06997374
0.063657954 0.059890267 -0.2617856 0.09797468 0.102835216 0.03351773 0.215991 0.06694427
0.12235123 0.07661261 -0.058763 0.061382826 0.12804945 0.14968842 0.1705333 -0.00030637137
00000000: 023a b5bd c113 8a3e c8d9 5ebe 4576 873e
00000010: 6b09 05bb 9957 12be 429e 383e c11b 9ebd
00000020: 7fef 153e a1ad 233e 7972 f43d dd24 2fbe
00000030: 4711 a53d fd56 7abd 919c 23be c3d1 8dbd
00000040: 31dc 7fbd f39a d03d 7be2 313e 5a11 c53d
00000050: 994e bebe 19ab 82bd 51b0 0ebe a4b1 4dbe
00000060: 283b a4be 2c57 32be 034d cebd 5300 03be
00000070: ec55 a3be 03f4 f93d 82cc 023e b9c5 1e3d
00000080: af84 2ebe b2ca bdbd 295b 10be 100a e33b
00000090: 7082 3cbe d864 a4bc ab4c 5dbd 484f 6bbd
000000a0: a6f6 99bd b7da 5b3e 8c28 e53c b8cc 73be
000000b0: b966 22be 6079 213e 556d 2d3e 6b91 c7bd
000000c0: af98 8a3e 4b11 9b3d 6f3d 903e b3bb 653e
000000d0: 14ea bf3d 9c3e 883e 827a 5c3d c307 79bd
000000e0: c667 ac3c 48bf b33e d51f f53c f16b d6bd
000000f0: 6e6b 4e3c 19e6 d6bd 6bdc 7e3e 587f c83c
00000100: aea3 afbd 29a9 1d3d e2e2 883e 5caa 1bbe
00000110: 3f25 7bbe 9950 dbbd fb3c cabd 13b7 9c3e
00000120: dc1a bdbc d9ed 003d e776 aa3b 10aa 8bbe
00000130: b836 96be 4297 4abe 1f39 b6be 7fde 56be
00000140: a423 913e b246 9d3e b036 823e 7663 483e
00000150: 2ec0 b63c 6c91 363e 5607 843e cf01 a43e
00000160: 128c 09bd c308 11be 27be 25be f3f8 02be
00000170: 4d32 b33d 299a 7bbe e361 4fbe 63d8 23be
00000180: 0db5 153d 97e6 56bd 74db 29be 752a ae3d
00000190: 7611 0fbe 1ced 3bbe bf8e 92be 9a9e 0fbe
000001a0: 5c6f 7bbe 2ee7 903d 65c5 f93d 9203 1dbe
000001b0: 47f8 a33e 9cf4 f93c 0f89 8cbd be9a 2a3d
000001c0: 6f22 773e c2a3 a7bc 7c9d 6a3e 098c 9a3d
000001d0: eba4 0f3e 8c19 80bd 7958 263e 9883 a8bd
000001e0: e9f6 5cbd e9ce 923d 1f73 003e 9342 853d
000001f0: a94b 683d 5135 0e3b d4f0 93be 1ff5 30be
00000200: 59c3 533d 7899 9bbe 2c39 3cbd 8ca2 90be
00000210: 3fe6 91be be27 e4bd 8e68 07be 1cd2 dd38
00000220: ecf1 8abe ba85 28be 3a74 c73d 5832 553b
00000230: d101 bb3d 71ed 19be 3a7e b4be dc22 95be
00000240: 49b5 f7bd 0e6d 5c3d 2788 133d 712f f33d
00000250: 1ad0 fd3c 971e 49bd dff8 67be c15a 1abd
00000260: dbf3 cc3d f833 09bd 0930 6abc 7b50 8f3e
00000270: cb5b 843e c231 83bc bbbd bc3e acae 9e3e
00000280: 9074 843e 70fb ae3e 133e 2bbd 6266 59be
00000290: f03c a43d 0622 8bbd b050 1cbe f725 c5bd
000002a0: 4e8c 4f3e 59fe 073e 3d78 173e ee81 fd3c
000002b0: 217e c6bd 7634 bebd 8924 243e 49dc 5bbe
000002c0: 196b 353e e56e 933e a445 1d3e 8027 be3d
000002d0: f0f3 d6bd c602 09be ff9a ddbd 7296 4cbe
000002e0: 0ace 8fbc d065 31be e2a8 353e 773a 673e
000002f0: a797 bd3d bea5 613c fecc 6bbe 6ed5 9fbd
00000300: 391d 2e3e 178c 11be 9ebc 143c bdc7 30be
00000310: 73bf a8bd 49b7 313e 49d3 22be 311a a83d
00000320: d9e8 003e 08ac f4bd 390b 633d c200 1d3e
00000330: 23f4 b8bc fe85 943c e2bf 473e 303e 4bbe
00000340: d81f 87be 8074 0abe 9e1b 09bd 4769 0abd
00000350: e7ac 203e 96c6 13be 7c1b 15be 799d 2b3e
00000360: e9b1 143e 1208 783e 1f37 723d 724b 33bc
00000370: 353a 3cbe dab4 3a3d a280 afbe ed32 3c3d
00000380: 6ef3 46be 4f7c 853e 0d0e c0bd 25d2 5b3e
00000390: 2549 88be 11e8 acbe 3f7c e13c cacc a8be
000003a0: 0735 debe b482 07bf d70c d13e 247a b93e
000003b0: bc23 983e a9df 383e b8f9 d3bd 644e 8f3d
000003c0: 1a5f 823d 7f4f 753d c308 86be f3a6 c83d
000003d0: 459b d23d e349 093d bf2c 5d3e 141a 893d
000003e0: 4893 fa3d 12e7 9c3d 79b1 70bd 8f6c 7b3d
000003f0: 651f 033e ec47 193e 48a0 2e3e 78a0 a0b9

conv1.bias f4 [16]
0.12794413 0.06327617 0.28499338 0.13003719 -0.04524517 -0.24281715 -0.1320081 0.16787186
0.046141475 -0.23753203 0.07245143 -0.24533774 -0.1795757 -0.12536424 -0.12241604 -0.023573656
00000000: c903 033e f096 813d a7ea 913e 7828 053e
00000010: 0053 39bd 0fa5 78be 222d 07be 9ae6 2b3e
00000020: d8fe 3c3d 993b 73be 6a61 943d d139 7bbe
00000030: b1e2 37be 7c5f 00be 43b5 fabd 8a1d c1bc

conv2.weight f4 [8, 16, 3, 3]
0.02822504 0.027453948 -0.0036229836 -0.056881107 0.0062571415 -0.13919614 0.029491961 0.02811017
-0.034832947 -0.09662319 0.04515472 0.019439282 0.04597536 0.073931724 -0.014454903 -0.06700127
0.08461243 -0.022609154 -0.06677089 0.04460093 0.050485067 0.062439203 0.039154936 -0.12155359
-0.021703238 0.0103649385 0.010615002 -0.016564665 -0.07125451 -0.10310356 0.08724517 0.054886352
0.082588926 0.06964434 0.13055074 0.12774044 -0.023976188 0.09560888 0.15455385 0.087873094
-0.07449461 0.024092257 0.11466999 -0.013140611 -0.023318153 0.054714564 -0.055301286 0.015982661
0.07461804 0.06477157 -0.022899617 0.036214236 -0.06473875 -0.1272386 0.070501596 0.12596695
0.20297834 -0.039506473 -0.07436133 -0.0003692126 0.16531527 0.093169056 0.14174294 0.058993783
-0.037332956 -0.1120341 -0.06712344 0.03584042 -0.13052057 0.097584926 0.07233906 0.033046436
0.0034562408 0.027072899 -0.23091295 0.2850358 0.3686059 0.31258723 -0.21100235 -0.15087378
-0.024691213 -0.067654416 -0.03457746 -0.08008473 -0.021894125 -0.023714863 0.04960364 -0.029139297
0.0058909534 -0.07402308 -0.0503682 -0.037787393 -0.07499655 -0.048341032 -0.008208447 -0.053281963
0.028730622 0.04520331 -0.009407161 0.022518132 -0.033439036 0.027835222 0.03611425 0.10902005
-0.001997001 0.009344253 -0.121428765 -0.019150214 0.02863942 0.06455489 -0.012968503 0.029155247
-0.109444365 0.029586673 -0.056546308 0.03374022 -0.100809924 0.0051863464 -0.022075946 -0.0058559757
0.08181087 0.05357786 0.1438337 -0.14971298 -0.1295988 0.0044472925 0.037218165 -0.0070000957
0.12613699 0.006107713 -0.075856365 -0.15237926 -0.0005629683 0.12548694 -0.021276664 -0.05015857
0.10953953 0.07010889 -0.032215156 -0.111819945 -0.1509196 0.15678678 0.050879724 0.0884253
0.0016039911 -0.033632185 0.15980896 0.15354624 0.029806675 -0.019742236 0.102018215 0.06279965
0.11670083 0.007795196 0.06736895 -0.02107185 0.021318812 -0.01626176 -0.036666162 0.07582012
0.06605841 0.09247692 0.048638236 0.16873847 0.15453607 0.06124495 0.072847165 0.051850703
0.13790268 0.08788242 0.030089999 -0.062287703 -0.086467646 -0.030682355 -0.09921929 -0.029829843
-0.0766905 -0.12808213 -0.107848875 -0.03720051 0.038631827 0.011370839 0.007678019 0.1378067
0.023028402 0.11419289 -0.054876294 -0.023127794 0.05744467 -0.028900683 -0.0022648554 -0.07827776
-0.026496813 0.027788231 0.10407806 0.13147473 0.053358715 -0.00024446452 0.102545895 0.11793703
0.104662575 0.083660215 0.122955374 0.0025656999 0.18892482 0.0640453 0.1397538 0.14334244
0.052980952 0.07290792 0.09045696 0.05583834 0.09785187 0.16744812 0.03255482 0.10810401
0.038756087 0.054393213 -0.12802657 0.019216685 -0.119746305 -0.046306953 0.024314037 0.12832147
0.12354757 -0.032383937 0.01548658 0.077004224 -0.03612755 0.06884382 0.019010643 0.024477046
0.041137055 -0.0017204714 0.05753595 0.14077912 0.0862525 0.0952697 0.1257323 0.008945564
0.08779929 0.04717797 0.055023786 0.07480534 0.016588248 -0.08102429 0.05159765 -0.0260973
0.10016213 0.032971013 0.030452533 0.03157346 0.08096214 -0.020837707 -0.022155607 0.040233605
00000000: 3338 e73c 1ae7 e03c 946f 6dbb 2afc 68bd
00000010: b508 cd3b 6f89 0ebe 2099 f13c 4d47 e63c
00000020: feac 0ebd 61e2 c5bd 28f4 383d 213f 9f3c
00000030: a950 3c3d 8469 973d 42d4 6cbc f637 89bd
00000040: 4849 ad3d d536 b9bc 2dbf 88bd 77af 363d
00000050: 6ec9 4e3d 40c0 7f3d ed60 203d 17f1 f8bd
00000060: fdca b1bc b4d1 293c 8cea 2d3c 9fb2 87bc
00000070: e2ed 91bd f627 d3bd 98ad b23d 83d0 603d
00000080: 6224 a93d b1a1 8e3d 18af 053e 64ce 023e
00000090: b669 c4bc 97ce c33d 5d43 1e3e cff6 b33d
000000a0: a190 98bd 205d c53c 1ad8 ea3d b84b 57bc
000000b0: b605 bfbc 611c 603d 9a83 62bd 12ee 823c
000000c0: 58d1 983d f5a6 843d fa97 bbbc 6155 143d
000000d0: c095 84bd d64a 02be 2463 903d 7bfd 003e
000000e0: 8ed9 4f3e 8ad1 21bd c14a 98bd e092 c1b9
000000f0: 6848 293e 6bcf be3d 1025 113e 77a3 713d
00000100: 71ea 18bd 2272 e5bd 0478 89bd 67cd 123d
00000110: 2fa7 05be 9bda c73d 8026 943d b35b 073d
00000120: 1982 623b fcc7 dd3c 7274 6cbe 36f0 913e
00000130: eab9 bc3e 6f0b a03e 0011 58be a87e 1abe
00000140: 3a45 cabc 668e 8abd 18a1 0dbd 7703 a4bd
00000150: 4f5b b3bc ac45 c2bc 302d 4b3d 89b5 eebc
00000160: e608 c13b 6a99 97bd e34e 4ebd f4c6 1abd
00000170: cb97 99bd 3f01 46bd b97c 06bc 303e 5abd
00000180: 7b5c eb3c 1b27 393d 7e20 1abc f277 b83c
00000190: 5ff7 08bd b106 e43c 89ec 133d e745 df3d
000001a0: 1ee0 02bb a318 193c a5af f8bd e9e0 9cbc
000001b0: 389d ea3c 5b35 843d d879 54bc fcd6 ee3c
000001c0: 5e24 e0bd c05f f23c 1a9d 67bd 2f33 0a3d
000001d0: 6f75 cebd 3af2 a93b 9dd8 b4bc 7ce3 bfbb
000001e0: 758c a73d 7574 5b3d 2449 133e 5c4e 19be
000001f0: 8cb5 04be 98ba 913b 1372 183d 0f61 e5bb
00000200: 0e2a 013e 3623 c83b 955a 9bbd 4f09 1cbe
00000210: 2a94 13ba a67f 003e 664c aebc 1373 4dbd
00000220: 4356 e03d 4095 8f3d 0af4 03bd db01 e5bd
00000230: ab8a 1abe b78c 203e 4267 503d 5318 b53d
00000240: 033d d23a e7c1 09bd f6a4 233e 3a3b 1d3e
00000250: 212d f43c 78ba a1bc edee d03d 1a9d 803d
00000260: d800 ef3d d86e ff3b bbf8 893d df9e acbc
00000270: caa4 ae3c 6237 85bc 422f 16bd 9447 9b3d
00000280: a249 873d 8a64 bd3d e338 473d c7c9 2c3e
00000290: b43e 1e3e fcdb 7a3d e530 953d 6761 543d
000002a0: 5c36 0d3e b3fb b33d 4d7f f63c 6421 7fbd
000002b0: f315 b1bd 9059 fbbc 7c33 cbbd b75d f4bc
000002c0: e90f 9dbd f627 03be dfdf dcbd 905f 18bd
000002d0: 683c 1e3d c14c 3a3c e497 fb3b 331d 0d3e
000002e0: 0fa6 bc3c f6dd e93d f7c5 60bd 8076 bdbc
000002f0: 1a4b 6b3d 20c1 ecbc f86d 14bb 1750 a0bd
00000300: d80f d9bc 25a4 e33c e126 d53d 50a1 063e
00000310: ab8e 5a3d 792b 80b9 9503 d23d f888 f13d
00000320: 5559 d63d 0c56 ab3d 07d0 fb3d 4d25 283b
00000330: 8275 413e 2f2a 833d 9f1b 0f3e 5cc8 123e
00000340: 8e02 593d bf50 953d 8041 b93d beb6 643d
00000350: 9066 c83d 8577 2b3e 3458 053d a365 dd3d
00000360: b4be 1e3d 6bcb 5e3d 6619 03be 4f6c 9d3c
00000370: 8d3d f5bd 5cac 3dbd 3b2e c73c b466 033e
00000380: 8206 fd3d 05a5 04bd 6dbb 7d3c 64b4 9d3d
00000390: 7bfa 13bd fdfd 8c3d 35bc 9b3c 1684 c83c
000003a0: 547f 283d 7181 e1ba d1aa 6b3d 6728 103e
000003b0: 27a5 b03d c31c c33d f8bf 003e 6a90 123c
000003c0: 1dd0 b33d b03d 413d 9f60 613d 8b33 993d
000003d0: 14e4 873c 10f0 a5bd 0f58 533d 01ca d5bc
000003e0: ce21 cd3d 9d0c 073d 9777 f93c 2c53 013d
000003f0: 7acf a53d d7b3 aabc ad7f b5bc fecb 243d

conv2.bias f4 [8]
-0.15301509 -0.23548847 0.07436231 0.008557901 -0.0099247955 -0.26730287 0.05203938 0.01804434
00000000: fdaf 1cbe e423 71be 444b 983d 7036 0c3c
00000010: 9c9b 22bc ecdb 88be 3f27 553d b9d1 933c

fc1.weight f4 [32, 512]
-0.013965273 0.012007405 0.007746302 -0.026594665 -0.026422737 -0.03707452 0.0018015461 -0.03608191
0.008612581 0.03988349 -0.018779757 -0.01740931 0.007344887 0.013765408 -0.019735718 0.035447612
0.026747754 0.027151778 0.02552306 -0.0062698745 -0.023369111 0.0013558171 -0.028900046 -0.0318004
0.02589564 -0.016665881 0.03283653 0.016827125 0.033741444 -0.034819517 -0.009033661 -0.0031707368
-0.038948633 -0.039445497 -0.0055311504 -0.017400103 -0.03965285 -0.0067171482 -0.013644947 -0.010654094
0.04268525 0.042706534 0.0054716016 -0.029065713 0.0038228126 0.029289687 -0.024234103 -0.009980612
-0.027540721 0.0078104604 0.033645723 0.0028535787 0.0010697928 -0.0068994947 0.037669856 -0.028189639
0.007198293 -0.016208004 -0.02912194 -0.040358927 0.019392788 -0.00026603742 -0.022794934 -0.006255064
-0.040181726 0.035560317 -0.04019357 -0.043388836 -0.032333173 -0.03711998 -0.020472538 -0.020684715
0.016376218 -0.017406741 -0.04275715 0.017014626 -0.022973621 -0.0039305426 -0.0065615354 0.03019159
-0.034676872 0.013152613 -0.03129013 -0.015928125 0.023524383 0.018486818 -0.0017429863 -0.014289657
-0.007207073 -0.02964716 -0.037375245 0.017119316 -0.017990459 0.0163567 0.0072398833 0.03399737
-0.008170569 -0.0110866055 -0.03182267 -0.0068620243 -0.03284087 -0.0032139136 0.02188571 -0.008501982
0.019404745 -0.020670401 0.0089898 0.03953082 -0.0032905287 -0.01847376 0.029239452 0.00095211604
0.025402267 0.015056193 0.003369159 -0.008023253 0.042428356 -0.034732502 -0.009525855 0.027079899
-0.035191942 0.026923371 0.009134093 0.03080524 -0.025543403 -0.042924646 0.0096297115 -0.0066237077
0.017567981 0.014282822 -0.0055604363 0.034404654 -0.03704665 0.0019464068 0.03682635 0.0219705
-0.00046577214 0.011817054 -0.030693302 -0.04151692 -0.011304214 -0.025484487 0.031487603 0.03851647
0.01502847 0.04419083 0.007826281 -0.0015085108 -0.020084929 -0.002633218 0.021452198 0.010672356
-0.0017267675 -0.013992283 0.030364733 0.028730577 0.02016372 0.03528288 -0.01537993 0.027045999
0.031688876 -0.037210435 -0.012685588 -0.01074063 0.031524982 0.015469869 -0.0410167 -0.029029
0.0016552181 0.008416764 -0.031758986 -0.020694176 0.039450083 -0.022546105 -0.019019226 -0.037292995
0.002754378 -0.0027112796 0.023627887 -0.0056760865 -0.035525426 0.031480055 0.018142536 -0.041703228
0.033755176 -0.04180928 0.029436596 0.0056298156 0.03411684 0.034087833 0.041539833 -0.012327012
-0.021947175 0.034407683 -0.019235965 -0.019743333 0.032178756 0.010147167 -0.0383781 -0.033358764
0.042401895 0.044202562 -0.03631105 0.029353516 0.016700557 0.016965512 0.018152488 -0.005184175
0.00808306 -0.00068817235 -0.011000704 0.022930505 0.037759576 0.031268492 0.04204608 0.017569447
-0.019224038 -0.037822902 0.008180101 0.041923855 0.039352972 -0.021637263 -0.025947062 0.020224243
0.023937635 0.0247538 0.0064372662 0.032747272 0.015614435 -0.04117001 0.0381787 0.02044895
0.03052484 0.002183344 -0.0006511388 -0.030265622 0.020435696 -0.010260569 0.015458675 0.025712121
0.03129701 0.015205592 -0.038531333 -0.004642966 -0.0042620474 -0.018319482 -0.0058299983 -0.030076012
0.024397787 -0.008467164 0.014516641 -0.040280167 0.0013369462 -0.01092656 -0.008872939 -0.020690471
00000000: 9ace 64bc b5ba 443c b1d4 fd3b 0edd d9bc
00000010: 7f74 d8bc 74db 17bd db21 ec3a a0ca 13bd
00000020: c81b 0d3c df5c 233d 01d8 99bc f89d 8ebc
00000030: 61ad f03b 4e88 613c cdac a1bc 8431 113d
00000040: 1b1e db3c 686d de3c bc15 d13c 8573 cdbb
00000050: 9470 bfbc acb5 b13a cabf ecbc 2341 02bd
00000060: 1823 d43c e386 88bc 997f 063d 0ad9 893c
00000070: 7834 0a3d e99e 0ebd ec01 14bc 23cc 4fbb
00000080: 9a88 1fbd 9a91 21bd a73e b5bb a98a 8ebc
00000090: 076b 22bd 861b dcbb 0e8f 5fbc 828e 2ebc
000000a0: bbd6 2e3d 0ced 2e3d 1f4b b33b 381b eebc
000000b0: 2788 7a3b edf0 ef3c 9986 c6bc b985 23bc
000000c0: 149d e1bc e4ee ff3b 19d0 093d 1b03 3b3b
000000d0: 4a38 8c3a 2815 e2bb b54b 1a3d f5ed e6bc
000000e0: a9df eb3b a6c6 84bc 2291 eebc 674f 25bd
000000f0: a0dd 9e3c f07a 8bb9 71bc babc 48f7 ccbb
00000100: 9895 24bd b2a7 113d 03a2 24bd 7eb8 31bd
00000110: ca6f 04bd 1f0b 18bd 06b6 a7bc fe72 a9bc
00000120: 6b27 863c 9598 8ebc 1f22 2fbd 4262 8b3c
00000130: 2d33 bcbc c8cb 80bb 2602 d7bb 5a54 f73c
00000140: 5609 0ebd 0f7e 573c 142a 00bd b37b 82bc
00000150: 35b6 c03c ab71 973c ea74 e4ba 2a1f 6abc
00000160: 4f29 ecbb 9ade f2bc c916 19bd cf3d 8c3c
00000170: ba60 93bc 7cfe 853c 8b3c ed3b d440 0b3d
00000180: dadd 05bc 98a4 35bc 7d58 02bd d5da e0bb
00000190: 2684 06bd 86a0 52bb a949 b33c e64b 0bbc
000001a0: b3f6 9e3c f954 a9bc f449 133c 12eb 213d
000001b0: e9a5 57bb 4856 97bc 9387 ef3c 6d97 793a
000001c0: 6a18 d03c 40ae 763c 1ccd 5c3b f673 03bc
000001d0: 5bc9 2d3d ab43 0ebd 5512 1cbc aad6 dd3c
000001e0: 6d25 10bd 678e dc3c 2aa7 153c 455b fc3c
000001f0: 6640 d1bc c1d1 2fbd f0c5 1d3c b00b d9bb
00000200: baea 8f3c 7f02 6a3c 5234 b6bb e5eb 0c3d
00000210: 3abe 17bd 931e ff3a 3ad7 163d 7afb b33c
00000220: e132 f4b9 519c 413c 8570 fbbc a50d 2abd
00000230: 4f35 39bc d8c4 d0bc 25f9 003d 72c3 1d3d
00000240: f939 763c 7201 353d cd39 003c 39b9 c5ba
00000250: 2689 a4bc 1192 2cbb 85bc af3c 1bdb 2e3c
00000260: b454 e2ba e33f 65bc 76bf f83c 635c eb3c
00000270: 632e a53c c884 103d 1afc 7bbc 928f dd3c
00000280: 32cc 013d f869 18bd 36d7 4fbc 78f9 2fbc
00000290: 5720 013d 5575 7d3c 2101 28bd 3ace edbc
000002a0: e7f3 d83a 78e6 093c b615 02bd d586 a9bc
000002b0: 6996 213d 9cb2 b8bc 35ce 9bbc 8ac0 18bd
000002c0: cb82 343b b9af 31bb 458f c13c 77fe b9bb
000002d0: 1c83 11bd 3bf1 003d a89f 943c 01d1 2abd
000002e0: de42 0a3d 3540 2bbd 0425 f13c 517a b83b
000002f0: 1abe 0b3d af9f 0b3d ac25 2a3d 3cf7 49bc
00000300: 90ca b3bc 12ef 0c3d be94 9dbc c5bc a1bc
00000310: dfcd 033d 4e40 263c 5b32 1dbd 33a3 08bd
00000320: 9cad 2d3d bf0d 353d e5ba 14bd c976 f03c
00000330: 9bcf 883c 42fb 8a3c 87b4 943c 03e0 a9bb
00000340: d06e 043c 7766 34ba 4c3c 34bc c1d8 bb3c
00000350: c9a9 1a3d 6413 003d 8338 2c3d cded 8f3c
00000360: bb7b 9dbc 30ec 1abd d505 063c 59b8 2b3d
00000370: 9530 213d a140 b1bc ef8e d4bc 50ad a53c
00000380: dc18 c43c 7bc8 ca3c b4ef d23b 0122 063d
00000390: b0d3 7f3c e2a1 28bd 4561 1c3d 8e84 a73c
000003a0: 3b0f fa3c 6f16 0f3b 2fb1 2aba 9cef f7bc
000003b0: c368 a73c f21b 28bc 6246 7d3c 3aa2 d23c
000003c0: 4b31 003d e020 793c 08d3 1dbd 0624 98bb
000003d0: a5a8 8bbb bd12 96bc 9209 bfbb f861 f6bc
000003e0: dedd c73c dcb9 0abc 35d7 6d3c d1fc 24bd
000003f0: 783c af3a 5005 33bc ce5f 11bc 107f a9bc

fc1.bias f4 [32]
0.024822155 -0.008391043 0.0096592745 0.008588296 -0.05044237 -0.0012743048 -0.026364276 -0.06694745
0.053402495 0.062169433 0.045580152 -0.0079974625 0.008890774 -0.0075008376 -0.06866147 -0.03476527
-0.01780627 -0.06970832 -0.0053970483 0.014740594 -0.0072858958 0.037239518 0.02913695 0.1069001
-0.006939009 -0.037607882 -0.013290193 0.053294998 0.10702195 -0.058414616 0.016909886 0.023638628
00000000: d557 cb3c 967a 09bc ef41 1e3c edb5 0c3c
00000010: a99c 4ebd 9306 a7ba e5f9 d7bc bf1b 89bd
00000020: 93bc 5a3d 60a5 7e3d 41b2 3a3d ca07 03bc
00000030: 9caa 113c 96c9 f5bb 639e 8cbd 0766 0ebd
00000040: 74de 91bc 3cc3 8ebd b9d9 b0bb 8882 713c
00000050: 86be eebb 7788 183d 9db0 ee3c 71ee da3d
00000060: a060 e3bb b90a 1abd 1cbf 59bc db4b 5a3d
00000070: 532e db3d 2a44 6fbd 9a86 8a3c cca5 c13c

fc2.weight f4 [2, 32]
0.058011096 0.49494314 0.13395001 0.30504298 -0.06396872 0.22751164 0.43882713 -0.17782782
0.27654275 0.34189284 0.03317609 -0.12918852 0.06083765 -0.18236822 -0.32290387 -0.13140576
-0.3831849 -0.24423468 0.0026072818 -0.06622931 0.23556316 0.35449153 0.17122783 0.45360994
-0.5731248 -0.08376932 -0.023353662 0.49459684 0.5278297 -0.4194757 0.2975405 0.56773835
0.08979194 -0.47026736 0.17393392 -0.24119005 0.3235984 0.008674387 -0.49217042 0.116939165
-0.14772877 -0.14291485 -0.043697707 0.014297071 -0.35326466 0.23411736 0.4167899 0.058871124
0.23568626 -0.022812063 -0.056597717 -0.116058566 0.086594075 -0.41723987 -0.27777094 -0.48386818
0.52948445 0.14739446 0.24409921 -0.5187405 -0.51693 0.24970764 -0.1498517 -0.5745623
00000000: 0b9d 6d3d 3069 fd3e 312a 093e 982e 9c3e
00000010: 0802 83bd d0f8 683e f3ad e03e 7f18 36be
00000020: 0397 8d3e 940c af3e a7e3 073d ff49 04be
00000030: e630 793d bcbe 3abe a853 a5be 3b8f 06be
00000040: d030 c4be a818 7abe eede 2a3b 3ca3 87bd
00000050: 7837 713e ea7f b53e 5956 2f3e 903f e83e
00000060: 4fb8 12bf 408f abbd 2e50 bfbc cc3b fd3e
00000070: d91f 073f 85c5 d6be 3a57 983e 4d57 113f
00000080: d6e4 b73d e2c6 f0be bc1b 323e 86fa 76be
00000090: b1ae a53e 041f 0e3c c3fd fbbe cd7d ef3d
000000a0: 3646 17be 4558 12be 5efc 32bd 433e 6a3c
000000b0: 1bdf b4be 76bc 6f3e 7c65 d53e d922 713d
000000c0: bd57 713e 5de0 babc 02d3 67bd 1db0 edbd
000000d0: 3c58 b13d 77a0 d5be fe37 8ebe 92bd f7be
000000e0: 4b8c 073f 93ee 163e 25f5 793e 2dcc 04bf
000000f0: 8655 04bf 5cb3 7f3e b972 19be 8416 13bf

fc2.bias f4 [2]
0.20319861 -0.035911452
00000000: 4c13 503e e317 13bd
