Chapter7/model/birds_vs_airplanes.pt (torch_old, 73772 bytes, 8 tensors)

conv1.weight f4 [16, 3, 3, 3]
0	0x3f83715e	1.0268972
1	0x3f53c92f	0.82728857
2	0x3f759524	0.95930696
3	0xbee89b4f	-0.4543099
4	0xbf0878dd	-0.5330942
5	0xbda3f72e	-0.0800613
6	0x3e83642f	0.25662372
7	0x3cf5bdc3	0.029997712
8	0xbe8b877f	-0.27251813
9	0x3ea19297	0.31557152
10	0x3f258c41	0.64667135
11	0x3f49acd2	0.7877933
12	0xbf5c65e1	-0.86092955
13	0xbf7d49e9	-0.989409
14	0xbf06bbcd	-0.5263031
15	0xbebabad9	-0.36470678
16	0xbf1406ff	-0.57823175
17	0xbea9d6e9	-0.33171776
18	0x3e2d7e0e	0.16942617
19	0x3eb13e35	0.34617773
20	0x3f588430	0.845767
21	0xbf351e15	-0.70749027
22	0xbf0c7414	-0.5486462
23	0xbb7ff556	-0.0039056144
24	0xbe92a20f	-0.28639266
25	0xbe863b2f	-0.26217028
26	0xbe160507	-0.14650355
27	0x3f10c885	0.5655597
28	0xbdc85f7e	-0.09783839
29	0xbe89107d	-0.26770392
30	0x3f8b41ed	1.0879494
31	0x3f1acefa	0.6047207
32	0xbe448386	-0.19190797
33	0x3f3b2bdb	0.73113793
34	0x3f59b326	0.85038984
35	0x3ede8226	0.4345867
36	0x3d9dd96b	0.07707485
37	0xbe8c44a4	-0.2739612
38	0xbe05c6aa	-0.13064066
39	0x3f5f5517	0.8723921
40	0x3eb9cfa6	0.36291236
41	0xbda2e1f8	-0.07953256
42	0x3f102a1f	0.5631427
43	0x3f49f9e5	0.78896934
44	0x3f095fe5	0.5366195
45	0xbf178a90	-0.59195805
46	0xbfbda312	-1.481539
47	0xbfa41a31	-1.2820493
48	0xbe144402	-0.14479068
49	0xbf6ee7c2	-0.93322384
50	0xbf8acec6	-1.0844352
51	0xbc500547	-0.012696571
52	0xbe7ca428	-0.24671996
53	0xbec9989c	-0.39374244
54	0x3f93ff91	1.1562368
55	0x3f55e726	0.8355583
56	0x3f4499ce	0.7679719
57	0xbd9d090f	-0.076677434
58	0xbefc1768	-0.49236608
59	0xbeed082f	-0.46295306
60	0x3f1659e8	0.58730936
61	0x3e1b6748	0.15176117
62	0x3ecfdad0	0.40596628
63	0x3f15dfa9	0.58544403
64	0x3efb8e67	0.49132082
65	0x3ee31afe	0.4435653
66	0xbf0677d2	-0.5252658
67	0xbf860afa	-1.04721
68	0xbf8a1682	-1.0788119
69	0xbe5e7f08	-0.21728146
70	0xbedcec2e	-0.4314894
71	0xbe5b6aea	-0.21427503
72	0x3f8a6a3f	1.0813674
73	0x3f075513	0.5286419
74	0x3f22b6ed	0.6356037
75	0xbedeba8a	-0.43501693
76	0xbefb7ece	-0.49120182
77	0xbf549490	-0.8303919
78	0x3ea087ca	0.313536
79	0x3e8ce8ee	0.2752146
80	0x3e860157	0.26172897
81	0x3f47391d	0.7782152
82	0x3f242097	0.6411223
83	0x3f28fd3d	0.6601141
84	0x3cb7b9ad	0.022427404
85	0x3ed8168a	0.42204696
86	0x3e16d2cd	0.14728852
87	0x3e26013c	0.16211408
88	0x3f16a763	0.5884916
89	0x3edd83db	0.4326466
90	0x3f126a86	0.5719379
91	0x3ece7877	0.40326282
92	0x3f0f5b82	0.55999005
93	0xbea47ebd	-0.32127944
94	0xbe67fe3e	-0.2265558
95	0x3cc5da50	0.024151951
96	0xbeb4e5fb	-0.3533171
97	0x3ea4fdf3	0.32224998
98	0x3da5c4a3	0.08094146
99	0xbe940f3a	-0.28917867
100	0xbdd2176d	-0.10258374
101	0xbda12a02	-0.078693405
102	0xbf238ba2	-0.6388494
103	0xbf067271	-0.52518374
104	0xbed7e871	-0.42169526
105	0xbf3cdbc1	-0.7377282
106	0xbcfc7d8f	-0.03082159
107	0x3d81469a	0.06312294
108	0x3f3a33c2	0.72735226
109	0x3eed985e	0.4640531
110	0x3f10a204	0.56497216
111	0x3f4272d7	0.7595648
112	0x3f55cffd	0.8352049
113	0x3f557b62	0.8339139
114	0x3f1c55ee	0.6106862
115	0x3ee994fb	0.45621476
116	0x3f599b93	0.8500301
117	0x3f6d6376	0.9272989
118	0x3f4c0a1e	0.7970294
119	0x3f7d8b7b	0.99040955
120	0x3f8cbbfe	1.0994871
121	0x3f921fbb	1.1415933
122	0x3f909af9	1.1297294
123	0x3f6479e6	0.892485
124	0x3f87e971	1.0618116
125	0x3f8b4965	1.0881773
126	0x3f34fe63	0.70700663
127	0x3ec45001	0.38342288
128	0x3e80a647	0.2512686
129	0x3f2e5740	0.6810188
130	0x3ef19139	0.4718111
131	0x3f1b19ff	0.6058654
132	0x3ed7900c	0.42102087
133	0x3edcd18a	0.43128616
134	0x3efb65d2	0.4910112
135	0x3e7c3b7f	0.24632071
136	0xbe0af8d5	-0.13571484
137	0x3ea3e114	0.32007658
138	0xbd9f8989	-0.077899046
139	0xbdf2923c	-0.11844298
140	0xbe1a93c9	-0.15095438
141	0xbeac9097	-0.33704063
142	0xbec94345	-0.39309135
143	0xbf3810c2	-0.7190057
144	0xbe5c3a06	-0.21506509
145	0xbeb837b0	-0.35979986
146	0xbe9fcd95	-0.31211534
147	0xbe5f8920	-0.21829653
148	0xbf123f19	-0.5712753
149	0xbeb8cde9	-0.36094597
150	0xbf552d05	-0.8327182
151	0xbf6d5c65	-0.9271911
152	0xbf935bd0	-1.1512394
153	0x3f89b1f5	1.0757433
154	0x3fb0dd7c	1.3817592
155	0x3f9cc6ed	1.2248207
156	0x3f935979	1.151168
157	0x3f8afa59	1.085765
158	0x3f8dfe38	1.1093206
159	0x3ecdd837	0.4020402
160	0x3f0815b8	0.5315814
161	0x3e6fb0dc	0.2340731
162	0x3eef4f1e	0.4674005
163	0x3efeefd3	0.49792346
164	0x3d00a730	0.031409442
165	0x3edea419	0.43484572
166	0x3f1ac3f9	0.6045528
167	0x3ec3783b	0.38177666
168	0x3e3f1ee8	0.18664134
169	0x3e9218e7	0.28534624
170	0x3bacef1e	0.0052775284
171	0xbde2a029	-0.110657044
172	0x3d3e5524	0.046467915
173	0x3e55cd69	0.20879139
174	0x3ea39824	0.31952012
175	0x3e94ba64	0.29048455
176	0x3dcf71e7	0.10129147
177	0xbdfb69b4	-0.12276021
178	0x3df42550	0.11921179
179	0x3c4e7bb5	0.012602736
180	0x3f584d4f	0.84492964
181	0x3f6e5244	0.9309428
182	0x3f1206a7	0.570414
183	0x3f3938c6	0.72352254
184	0x3f856a9d	1.0423161
185	0x3f36295d	0.71156865
186	0x3eaa7f81	0.33300403
187	0x3f2269ee	0.63442886
188	0x3f2f84ea	0.68562186
189	0x3e6082eb	0.21924941
190	0x3e9bb484	0.3041116
191	0x3e9bfaae	0.3046469
192	0xbee92f15	-0.45543733
193	0x3e43ff48	0.19140351
194	0x3f23417d	0.637718
195	0xbe053b85	-0.13010986
196	0x3ec10824	0.37701523
197	0x3f5f32b6	0.87186754
198	0xbf0560f4	-0.52101064
199	0x3d3dd2fd	0.046343792
200	0x3e396720	0.18105745
201	0xbf9142c8	-1.1348505
202	0xbe56a2b6	-0.20960507
203	0x3ed45c70	0.41476774
204	0xbf0987f3	-0.5372307
205	0xbd9bf00b	-0.07614144
206	0x3f48dd19	0.7846237
207	0xbf1ce454	-0.612859
208	0xbeaa40de	-0.33252615
209	0xbd0d31b1	-0.034471218
210	0xbfb0168a	-1.3756878
211	0xbf15c4bf	-0.58503336
212	0x3ee12d21	0.43979743
213	0xbf2373e2	-0.638487
214	0xbdea1437	-0.11429637
215	0x3f43c914	0.76478696
216	0x3e875656	0.26433057
217	0x3edbe63d	0.42949095
218	0x3e8b6619	0.27226332
219	0x3b251e70	0.0025195144
220	0x3dfdc75a	0.12391539
221	0xbc2f4264	-0.010696981
222	0xbe86dafa	-0.2633894
223	0xbe9a797e	-0.30170816
224	0x3db0876b	0.08619579
225	0x3f1ae950	0.60512257
226	0x3ed7eb48	0.42171693
227	0x3f170790	0.58995914
228	0xbd9b2ed3	-0.075772904
229	0x3e8d41d5	0.27589288
230	0x3edeeebc	0.43541515
231	0x3df51fe7	0.119689755
232	0x3e411c63	0.18858485
233	0x3de829f9	0.11336131
234	0xbf0daa1a	-0.5533768
235	0xbede660a	-0.43437225
236	0xbdd93f24	-0.10607746
237	0xbf7a881a	-0.97863925
238	0xbf581422	-0.8440572
239	0xbf341b9f	-0.70354646
240	0xbf0b4cce	-0.5441407
241	0xbf605491	-0.8762904
242	0xbf416846	-0.75549734
243	0x3f0962f6	0.5366663
244	0x3e9c211c	0.3049401
245	0x3ece6bcc	0.40316617
246	0x3ecf3e4f	0.40477225
247	0x3e865277	0.2623479
248	0x3e87a1e8	0.26490712
249	0x3f283f8d	0.6572197
250	0x3f14a994	0.58071256
251	0x3ea6a622	0.32548624
252	0x3f090109	0.53517205
253	0xbb8f1753	-0.004366794
254	0x3ea197d8	0.3156116
255	0x3ec6d991	0.38837865

conv1.bias f4 [16]
0	0xbeb08559	-0.34476736
1	0x3d815900	0.063158035
2	0xbf4ed95d	-0.8080042
3	0xbf1e6419	-0.61871487
4	0x3e07e46e	0.13270733
5	0xbda3a893	-0.07991137
6	0x3d3567ca	0.044288434
7	0xbdaca887	-0.084305815
8	0xbd9a77d6	-0.07542388
9	0x3eb66619	0.3562477
10	0xbf72588e	-0.94666374
11	0xbf253ff9	-0.6455074
12	0xbeb5b47f	-0.3548927
13	0xbdd5711b	-0.10421964
14	0x3e251058	0.16119516
15	0xbf761b15	-0.96135074

conv2.weight f4 [8, 16, 3, 3]
0	0x3e06b799	0.13155974
1	0x3f3770ad	0.71656305
2	0x3f96c6a8	1.1779375
3	0xbdb6492d	-0.08900676
4	0x3ea29fc3	0.31762514
5	0x3f0e3031	0.55542284
6	0xbe452626	-0.19252834
7	0x3e1b2104	0.15149313
8	0x3edd4a61	0.4322081
9	0x3d901327	0.07034903
10	0x3f6af2f6	0.9177698
11	0x3f8010bd	1.0005108
12	0x3d23bf4c	0.039977357
13	0x3ec39e63	0.38206777
14	0x3ed4e9f7	0.4158475
15	0x3d15beb2	0.036558814
16	0x3e96cd39	0.29453447
17	0x3ec64e4d	0.38731614
18	0xbe9c117b	-0.30482087
19	0xbdcd84e5	-0.10035113
20	0x3dcd986c	0.10038838
21	0xbd0ff399	-0.035144422
22	0xbcc5ee17	-0.024161382
23	0x3d1a2d8b	0.03764109
24	0xbe0e44eb	-0.13893478
25	0xbd72e68e	-0.059301905
26	0x3cc1fe2f	0.023680774
27	0xbeb48f39	-0.3526552
28	0x3ddb1f84	0.106993705
29	0x3e314fc5	0.17315586
30	0xbbba7d1a	-0.005691183
31	0x3e7dbcda	0.24779072
32	0x3e83eecc	0.25768125
33	0xbbc710ed	-0.0060750158
34	0x3cb99480	0.022653818
35	0x3e20d9ed	0.15708132
36	0x3f548ffc	0.830322
37	0x3f17c0b7	0.59278435
38	0x3eb60de2	0.35557467
39	0x3e8dfbc8	0.27731156
40	0x3d7c6c40	0.061626673
41	0xbe0c8f99	-0.13726653
42	0xbe566c22	-0.20939687
43	0xbeb02cdb	-0.34409222
44	0xbf3ae2d2	-0.7300235
45	0x3f557d70	0.8339453
46	0x3e815067	0.25256655
47	0xbd6aa7ea	-0.05728904
48	0x3ef94f7c	0.48693454
49	0xbdde2d0c	-0.10848436
50	0xbebdd0b7	-0.370733
51	0x3e74a0fb	0.23889534
52	0xbe7545e8	-0.23952448
53	0xbec42657	-0.383105
54	0x3f5254a7	0.8216042
55	0x3f10201d	0.56299
56	0xbc24f041	-0.010067047
57	0x3f068358	0.52544165
58	0xbca9d58d	-0.020731712
59	0xbe8ae1d7	-0.27125427
60	0x3d6479d6	0.055780254
61	0xbe243b40	-0.16038227
62	0xbf07138a	-0.5276419
63	0xbe0999f9	-0.13437642
64	0x3ee6b7dd	0.45062152
65	0x3f39cded	0.7257984
66	0x3ca6937b	0.020333996
67	0x3f1bdd2c	0.60884356
68	0x3f1ce767	0.6129059
69	0x3e295033	0.165345
70	0x3efb8908	0.49127984
71	0x3f05ca25	0.52261573
72	0xbeeac39a	-0.45852357
73	0xbde65d7f	-0.11248302
74	0x3d8a3cb0	0.067498565
75	0xbd545249	-0.051836286
76	0x3e6207cb	0.22073285
77	0x3ea506ef	0.32231852
78	0x3dc7d0d8	0.09756631
79	0x3dcb8e9b	0.09939309
80	0x3e49236e	0.19642422
81	0xbe1926a9	-0.14956154
82	0x3f5c9825	0.86169654
83	0x3f89f60a	1.077821
84	0xbd5e6ced	-0.0543031
85	0x3f10cc94	0.5656216
86	0x3f4f40b3	0.809581
87	0x3d0007c3	0.031257402
88	0x3ecd1cfc	0.40061176
89	0x3f06e5c1	0.52694327
90	0xbf59172c	-0.8480098
91	0xbf05feb4	-0.5234177
92	0xbe357ef2	-0.17724207
93	0xbee2491c	-0.44196403
94	0xbe59beae	-0.21264145
95	0x3c74f02b	0.014949839
96	0xbd2f0af4	-0.042735055
97	0x3d0dbb2f	0.03460234
98	0x3e7e66ac	0.24843854
99	0x3edcd729	0.43132904
100	0x3e06ed84	0.13176543
101	0x3eb86bd2	0.3601976
102	0xbe1119a7	-0.14169942
103	0xbea5e887	-0.32403967
104	0xbd79db71	-0.06100029
105	0xbd7091b3	-0.0587327
106	0xbedbb439	-0.42910936
107	0xbe624a39	-0.22098626
108	0xbdc14c45	-0.094383754
109	0xbf15c2e1	-0.58500487
110	0xbf2b7cad	-0.66987115
111	0x3e8c1024	0.27356064
112	0xbdd04c2a	-0.10170777
113	0xbdac8a3c	-0.084248036
114	0x3f24c6aa	0.6436564
115	0x3e40803c	0.18798918
116	0x3dd5d9ac	0.10441908
117	0x3df27f2a	0.11840661
118	0x3f37f015	0.7185071
119	0x3f28ba25	0.65909034
120	0x3d052bdb	0.032512527
121	0x3ed9c818	0.42535472
122	0x3ee62e13	0.44957027
123	0x3dff04d5	0.124520935
124	0x3ea5caab	0.32381186
125	0x3ed1baa7	0.40962717
126	0x3effb444	0.4994222
127	0x3e55942a	0.20857301
128	0xbd1e8e82	-0.038710125
129	0x3e86c423	0.26321515
130	0x3d30026c	0.04297106
131	0xbd3c44df	-0.045964118
132	0x3eb0507b	0.34436402
133	0x3e100e21	0.1406789
134	0xbabe6429	-0.00145257
135	0x3ecac042	0.39599806
136	0xbe028546	-0.12746152
137	0xbdc83ff0	-0.0977782
138	0x3da33e76	0.07970898
139	0xbe901df8	-0.28147864
140	0xbebbf164	-0.36707604
141	0x3e29780e	0.16549703
142	0xbe114baa	-0.1418902
143	0xbe710f15	-0.2354091
144	0xbde36ce5	-0.11104754
145	0xbe4b9a54	-0.1988309
146	0xbe4477c3	-0.1918631
147	0xbda3735e	-0.07980989
148	0xbe09dff5	-0.13464339
149	0xbe661fff	-0.22473143
150	0xbe1cbe4f	-0.15306972
151	0x3c50e2c1	0.012749375
152	0xbdde07b5	-0.10841314
153	0x3dd488bd	0.10377643
154	0x3da491b8	0.08035606
155	0xbd1f45d9	-0.03888497
156	0x3e5228e7	0.20523416
157	0x3d15be14	0.036558226
158	0x3cda647f	0.026659248
159	0x3dc2a185	0.09503464
160	0x3e4d7f5c	0.20068115
161	0x3d074599	0.033025358
162	0x3d911a64	0.07085112
163	0x3e2dc82f	0.16970895
164	0xbcac5573	-0.02103684
165	0x3e0a5631	0.13509442
166	0x3e3841b9	0.17993821
167	0x3dab5718	0.08366221
168	0x3e125852	0.14291504
169	0x3e8f3b31	0.27974847
170	0x3e1e35ac	0.15450162
171	0x3e3f9cc6	0.18712148
172	0x3e394464	0.18092495
173	0x3d99ea11	0.07515348
174	0x3dfab4bf	0.12241506
175	0x3e4f8abf	0.20267771
176	0x3e12117b	0.14264481
177	0x3e3509a1	0.17679454
178	0x3e9aad18	0.30210185
179	0x3e744dfe	0.23857877
180	0x3f1a0b16	0.60173166
181	0x3f28d005	0.6594241
182	0x3f3cc910	0.737443
183	0x3f19b7e7	0.6004624
184	0x3f2a9f5f	0.6664943
185	0x3f35d192	0.71022904
186	0x3f4dea35	0.80435497
187	0x3f53c1c4	0.8271754
188	0x3f3b3a93	0.7313625
189	0x3d2e50c8	0.042557508
190	0x3d4cfb3d	0.050044287
191	0x3dc68536	0.09693377
192	0x3e30ae10	0.172539
193	0x3dac73e5	0.08420543
194	0x3e685c36	0.22691426
195	0x3e7c07f0	0.24612403
196	0x3dcaf246	0.09909491
197	0x3e4f988b	0.20273034
198	0x3e477a02	0.19480136
199	0x3e757e3c	0.23973936
200	0x3ec5efad	0.3865942
201	0x3e82a86f	0.2551913
202	0x3ebcca95	0.36873308
203	0x3ef7ccae	0.48398346
204	0x3edeb34e	0.43496174
205	0x3eab8ac6	0.33504313
206	0x3ef8860d	0.48539773
207	0x3e899137	0.26868603
208	0x3e0bb30b	0.13642518
209	0x3d92319a	0.07138367
210	0x3dec1825	0.11528043
211	0x3e1266a4	0.14296967
212	0x3e01541c	0.12629741
213	0x3e0d4d66	0.13799056
214	0x3daab6fa	0.08335681
215	0x3e786789	0.24258246
216	0x3d47586c	0.04866831
217	0x3d973f24	0.0738509
218	0x3d769abf	0.06020617
219	0x3d51ff2b	0.051268738
220	0x3df1f6be	0.118146405
221	0xbc643296	-0.013928076
222	0x3e0c48fc	0.13699716
223	0x3e8efdd3	0.27928028
224	0x3e434c96	0.19072184
225	0xbe1a012a	-0.15039507
226	0xbe8f39c2	-0.27973753
227	0xbe9a3709	-0.30120113
228	0xbd5012b2	-0.05079908
229	0xbe07f633	-0.13277511
230	0xbe96f603	-0.29484567
231	0xbdec759b	-0.11545869
232	0x3d556e67	0.05210724
233	0xbddb742a	-0.10715516
234	0xbea0e614	-0.31425536
235	0xbea01974	-0.3126942
236	0xbecbbfd5	-0.39794794
237	0xbdea3dbc	-0.11437556
238	0xbd81b2a7	-0.06332903
239	0xbe8ad8f3	-0.27118644
240	0xbe558c94	-0.20854408
241	0x3c847823	0.016170567
242	0xbe3e6589	-0.1859342
243	0xbe4ebcce	-0.20189211
244	0xbe6603c0	-0.22462368
245	0xbe01ab29	-0.12662949
246	0xbc4ebb62	-0.012617918
247	0xbdfda433	-0.12384834
248	0xbcaca8a3	-0.021076506
249	0x3bbc9912	0.005755552
250	0xbe1c2389	-0.1524793
251	0xbde67cc7	-0.11254268
252	0x3d157b3c	0.03649448
253	0x3e3199c5	0.17343815
254	0x3e2a160c	0.16609973
255	0x3d7fdb45	0.06246497

conv2.bias f4 [8]
0	0x3f02ef74	0.51146626
1	0x3f08f2ae	0.534953
2	0xbf45f52c	-0.7732723
3	0x3f5bfcf6	0.8593286
4	0xbe9fab28	-0.3118527
5	0x3fee4f62	1.8617976
6	0xbf2759a1	-0.6537114
7	0x3d854cad	0.06508765

fc1.weight f4 [32, 512]
0	0xbdcd295a	-0.10017653
1	0xbe2728d8	-0.16324174
2	0xbe0532fd	-0.13007732
3	0xbd311890	-0.043236315
4	0xbdf70bbe	-0.120627865
5	0xbe508652	-0.20363739
6	0xbe565e02	-0.20934299
7	0xbd9f18d4	-0.077684075
8	0xbdd7f9c3	-0.10545685
9	0xbe073068	-0.1320206
10	0xbd80810e	-0.06274615
11	0xbd25e317	-0.040499773
12	0xbe0834e3	-0.13301425
13	0xbea5eef6	-0.32408875
14	0xbea9b98f	-0.33149382
15	0x3d6782ab	0.0565211
16	0x3e44a475	0.1920336
17	0x3ea7cca0	0.32773304
18	0x3dd0fd18	0.10204524
19	0xbe55ca56	-0.20877966
20	0xbe1e2c2d	-0.15446539
21	0xbd2a7071	-0.04161114
22	0x3e057480	0.13032722
23	0x3e6ed4d2	0.23323372
24	0x3e646687	0.22304736
25	0x3eff22be	0.49831194
26	0xbd83d03e	-0.064362034
27	0xbf34059a	-0.7032105
28	0xbf204c15	-0.6261609
29	0xba295047	-0.00064588006
30	0x3f058b0c	0.52165294
31	0x3e9f1442	0.31070143
32	0x3ddd7bea	0.1081465
33	0x3ee160fb	0.44019303
34	0xbddffc92	-0.10936846
35	0xbf225561	-0.6341153
36	0xbf0da2eb	-0.5532672
37	0xbce70313	-0.028199708
38	0x3eda31c5	0.42616096
39	0x3e22c44b	0.15895192
40	0x3daf26cc	0.08552322
41	0x3ebc4798	0.36773372
42	0x3da1ad67	0.07894402
43	0xbe8e1a9b	-0.27754673
44	0xbe09e606	-0.13466653
45	0x3d92fea6	0.071774766
46	0x3e04ddd5	0.12975247
47	0x3dc4951e	0.09598754
48	0xbdf8fdb4	-0.12157765
49	0xbd07f026	-0.033188008
50	0xbd4d2582	-0.0500846
51	0xbea6aee3	-0.32555303
52	0xbe5b4dfa	-0.21416464
53	0xbe092ef0	-0.13396811
54	0xbe48ba82	-0.19602397
55	0xbce04fbf	-0.027381776
56	0xbe94584b	-0.28973612
57	0xbe7f3945	-0.2492419
58	0xbecc12ae	-0.39858
59	0xbf04e91b	-0.5191819
60	0xbef7eea3	-0.48424253
61	0xbeb2c187	-0.34913275
62	0xbeab5e84	-0.33470547
63	0xbdd51a31	-0.10405386
64	0xbe253f74	-0.16137487
65	0xbe83c400	-0.25735474
66	0xbe7d59f3	-0.24741344
67	0xbe922441	-0.28543285
68	0xbe8116d1	-0.2521272
69	0xbe596bde	-0.21232554
70	0xbe41cf3e	-0.18926713
71	0xbce25e30	-0.027632803
72	0xbe5dc568	-0.21657336
73	0xbe9ebf38	-0.31005263
74	0xbedb1d15	-0.42795625
75	0xbef6041e	-0.48050016
76	0xbefcd22d	-0.493791
77	0xbeb9b72a	-0.36272556
78	0xbe818f92	-0.25304848
79	0xbdf65bb1	-0.120292075
80	0xbe1a7532	-0.15083769
81	0xbde7cd27	-0.113184266
82	0xbe860ba3	-0.26180753
83	0xbedf8970	-0.43659544
84	0xbec60a35	-0.38679662
85	0xbe08016a	-0.1328179
86	0xbcd60d0f	-0.026129274
87	0xbd8e0447	-0.069344096
88	0xbcaaacc9	-0.020834344
89	0x3c8c6b20	0.017140925
90	0xbcaed38a	-0.021341104
91	0x3b3b4a0d	0.0028578073
92	0xbbbec638	-0.0058219694
93	0x3d74bb0a	0.059748687
94	0x3d8d48a4	0.06898621
95	0xbce9a381	-0.028520348
96	0xbe17db8e	-0.14829847
97	0xbcc85152	-0.024452839
98	0x3c681be2	0.014166804
99	0xbb483b4b	-0.003055292
100	0xbcba8e8e	-0.022773053
101	0xbda3f5b6	-0.0800585
102	0xbd8a323a	-0.06747861
103	0xbddd9d40	-0.10821009
104	0xbe3e730f	-0.18598579
105	0xbdf8038f	-0.12110054
106	0xbe1cd672	-0.1531618
107	0xbe260bab	-0.16215388
108	0xbe7e6822	-0.24844411
109	0xbe9a23d2	-0.30105454
110	0xbe5fc6c9	-0.21853174
111	0xbe3d2fd5	-0.18475278
112	0xbe839c30	-0.257051
113	0xbe814211	-0.25245717
114	0xbe9a38ee	-0.3012156
115	0xbe9d6be0	-0.30746365
116	0xbead6f9e	-0.3387422
117	0xbec39ba7	-0.3820469
118	0xbead8ee3	-0.33898076
119	0xbe8c4e93	-0.27403697
120	0xbe9c5f56	-0.30541486
121	0xbebbb1e4	-0.36659157
122	0xbed379ad	-0.4130377
123	0xbea43ca7	-0.32077524
124	0xbedc19e7	-0.42988512
125	0xbed4695b	-0.4148663
126	0xbec2cd92	-0.38047463
127	0xbea9da20	-0.3317423
128	0xbe2422b1	-0.16028859
129	0xbe437ea2	-0.19091275
130	0xbe9e8dd8	-0.30967593
131	0xbe976463	-0.29568776
132	0xbe965b5b	-0.29366574
133	0xbe9346d9	-0.2876499
134	0xbe2e1313	-0.16999464
135	0xbd4d6a26	-0.05015006
136	0x3d4fdbf3	0.05074687
137	0x3d51c251	0.051210705
138	0xbe58f87b	-0.21188538
139	0xbeac3755	-0.33635965
140	0xbeaed8c7	-0.34149763
141	0xbdd54edf	-0.10415434
142	0x3d198e09	0.03748897
143	0x3d979942	0.074022785
144	0x3e129664	0.14315182
145	0x3e7ccea1	0.24688198
146	0xbd3db75f	-0.046317454
147	0xbe51de1d	-0.20494886
148	0xbe84586e	-0.25848716
149	0x3d1df56a	0.038564123
150	0x3eadc804	0.33941662
151	0x3e781194	0.24225456
152	0x3e88e594	0.26737654
153	0x3f116df4	0.568084
154	0x3ee98767	0.45611116
155	0x3eb7aeb5	0.35875478
156	0x3e96dcd3	0.2946535
157	0x3eaf975b	0.34295163
158	0x3ef67efa	0.4814375
159	0x3ecca0db	0.39966473
160	0x3e8036ac	0.2504171
161	0x3efb5997	0.4909179
162	0x3ed603f3	0.41799888
163	0x3ee09b19	0.4386833
164	0x3ed4def8	0.41576362
165	0x3ec0bff0	0.37646437
166	0x3eba7d85	0.3642389
167	0x3e960091	0.29297307
168	0x3df8ef75	0.12155048
169	0x3e24819f	0.16065072
170	0x3e23f5a2	0.1601167
171	0x3e25b165	0.16180952
172	0x3d428229	0.04748741
173	0x3c32ecc9	0.010920712
174	0x3d29d080	0.041458607
175	0x3d5c548f	0.05379158
176	0xbe22cbaa	-0.15898004
177	0xbe04a9f4	-0.12955457
178	0xbe943190	-0.28944063
179	0xbe577d9f	-0.21044014
180	0xbea08874	-0.31354105
181	0xbe90f497	-0.28311607
182	0xbe7e078e	-0.2480757
183	0xbe3ce6d4	-0.18447429
184	0xbeb2b9d8	-0.34907413
185	0xbec37d99	-0.3818176
186	0xbeddb2bf	-0.43300435
187	0xbef56cb7	-0.47934505
188	0xbef28a28	-0.4737103
189	0xbeec7387	-0.4618189
190	0xbedd8b34	-0.43270266
191	0xbeb99c06	-0.3625185
192	0x3b95ec07	0.004575256
193	0x3d167453	0.03673203
194	0x3e1c237d	0.15247913
195	0x3e149ee7	0.14513741
196	0x3dc6af37	0.09701388
197	0x3c46df43	0.012138191
198	0x3cb2eb3c	0.021840684
199	0xbdb67adf	-0.089101546
200	0x3e5efa06	0.21775064
201	0x3e9b0c8c	0.3028301
202	0x3e564a22	0.20926717
203	0x3e23bfb9	0.15991105
204	0x3e28df5f	0.1649146
205	0x3e3be0e1	0.18347503
206	0x3dae1ccc	0.08501586
207	0xbe0134eb	-0.12617843
208	0x3e5f77bd	0.2182302
209	0x3ede2846	0.433901
210	0x3e8bf5c5	0.27335945
211	0xbc1860d5	-0.00930043
212	0xbb464005	-0.003025056
213	0x3e34de5a	0.17662945
214	0x3eabdd4c	0.33567274
215	0x3c8741b9	0.016510831
216	0x3de1c2d8	0.110234916
217	0x3ea5a945	0.32355705
218	0x3ce30e6c	0.027716838
219	0xbed3765c	-0.4130124
220	0xbeeabd78	-0.45847678
221	0x3ba920dd	0.0051613883
222	0x3ec77e0a	0.38963348
223	0x3dc5d875	0.096604265
224	0xbcba8509	-0.022768514
225	0x3ddda6ac	0.10822806
226	0xbe516fa6	-0.20452747
227	0xbf198f78	-0.5998454
228	0xbf1aff24	-0.60545564
229	0xbe96390d	-0.293404
230	0x3df11e7c	0.117733926
231	0xbd74636f	-0.05966514
232	0xbd662cd9	-0.056195114
233	0x3cb1513a	0.021645177
234	0xbdad57e2	-0.08464028
235	0xbed91430	-0.42398214
236	0xbeb5deae	-0.35521454
237	0xbe439da4	-0.19103104
238	0xbd5f2ed0	-0.054488003
239	0xbde7c931	-0.11317671
240	0xbe0934ad	-0.13399
241	0xbda79697	-0.081830196
242	0xbe595a49	-0.21225847
243	0xbec4bf4b	-0.38427195
244	0xbea29230	-0.31752157
245	0xbe90b153	-0.28260288
246	0xbe8161fa	-0.25270063
247	0xbe1926e8	-0.14956248
248	0xbe28f58d	-0.1649992
249	0xbe50698f	-0.20352767
250	0xbe80857d	-0.25101843
251	0xbec38f4b	-0.3819526
252	0xbec2ac26	-0.38021964
253	0xbea76249	-0.32692173
254	0xbe8d3633	-0.27580413
255	0xbe4a1b3b	-0.1973695

fc1.bias f4 [32]
0	0xbf7976cb	-0.9744689
1	0x3de63b4c	0.11241779
2	0x3ed76d8b	0.42075762
3	0xbc82f1f5	-0.015984515
4	0xbe6b45dc	-0.22975868
5	0x3d89a374	0.06720629
6	0xbdf3eae9	-0.1191004
7	0xbd6d173f	-0.057883497
8	0x3e2f1212	0.17096737
9	0xbf714ee1	-0.94260985
10	0x3ef2710b	0.4735187
11	0x3f37fc82	0.7186967
12	0xbf2099c5	-0.62734634
13	0xbef926d5	-0.4866244
14	0x3ed61b9b	0.41817936
15	0x3f1cb349	0.6121107
16	0xbebbb71f	-0.36663148
17	0x3c230ab5	0.009951283
18	0xbe3941cf	-0.1809151
19	0xbea5d321	-0.3238764
20	0xbd676650	-0.056494057
21	0xbf24be72	-0.64353096
22	0xbebc7083	-0.3680459
23	0x3ea4a890	0.32159853
24	0xbc486de2	-0.012233229
25	0x3f13263f	0.57480234
26	0x3dc70421	0.097175844
27	0xbe281c77	-0.16417108
28	0xbe24496f	-0.16043638
29	0xbdbaeb6a	-0.09126933
30	0xbeea7efb	-0.45800003
31	0x3f174ff6	0.59106386

fc2.weight f4 [2, 32]
0	0x3ffe97a7	1.9890031
1	0x3f717572	0.9431983
2	0xbe019d8b	-0.12657754
3	0x3e7f1cd2	0.24913338
4	0xbcbb95aa	-0.022898514
5	0xbeb10fa4	-0.34582245
6	0x3daf2723	0.085523866
7	0xbe488fe6	-0.19586143
8	0xbec5fec1	-0.38670924
9	0x3e85c79e	0.26128858
10	0xbe7aa831	-0.24478222
11	0xbed72d91	-0.42026952
12	0xbefd9e14	-0.49534667
13	0xbfdb478c	-1.7131209
14	0xbe822b31	-0.25423577
15	0xbed0fa6c	-0.40816057
16	0xbe9bd414	-0.3043524
17	0xbdb31d64	-0.0874584
18	0xbed6dba6	-0.41964453
19	0xbeb76015	-0.35815492
20	0x3d1b5b61	0.037928943
21	0x3e369418	0.17829931
22	0x3ebd0198	0.36915278
23	0xbe462311	-0.19349314
24	0x3f285ff4	0.6577141
25	0xbe8bc2ba	-0.27297002
26	0x3f316d24	0.6930716
27	0xbe962200	-0.29322815
28	0x3e54cdd2	0.20781639
29	0x3f37b7c3	0.71764773
30	0x3b2151a1	0.0024615305
31	0xbf0fa008	-0.56103563
32	0xbff47ad9	-1.909999
33	0xbf3725d5	-0.715421
34	0xbc8f98a2	-0.017528836
35	0xbf03068f	-0.5118188
36	0x3df0c46a	0.11756213
37	0x3e9e8cb6	0.3096673
38	0xbe46320c	-0.19355029
39	0x3ed6f8dd	0.41986743
40	0x3f135bf7	0.575622
41	0xbe8e43df	-0.27786157
42	0x3e29802e	0.16552803
43	0x3f08e7a4	0.53478456
44	0x3e90a38a	0.2824977
45	0x3fbd31c9	1.4780818
46	0x3e3e64f0	0.18593192
47	0x3f1d4d41	0.61446005
48	0x3e58aa8d	0.2115881
49	0xbe158cc2	-0.14604476
50	0x3ef28806	0.47369403
51	0x3ec1a0bd	0.37817946
52	0x3dd60bfc	0.104515046
53	0xbe7aa3db	-0.24476568
54	0xbec6ac91	-0.38803533
55	0x3e433479	0.19062985
56	0xbebaff99	-0.3652313
57	0x3eae1ee5	0.34007946
58	0xbf24b1c5	-0.64333755
59	0xbcad55e6	-0.021159124
60	0x3dc217b2	0.09477176
61	0xbf5e86c4	-0.86924386
62	0xbdbfc025	-0.093628205
63	0x3ef746c7	0.48296186

fc2.bias f4 [2]
0	0x3fbc1d9c	1.4696536
1	0xbfc331ac	-1.5249534
